RL_network_operator/dqn_model.ckpt (torch, 73003 bytes, 6 tensors)

fc1.weight f4 [128, 6]
0	0xbe91e65e	-0.2849607
1	0x3e7eddcc	0.24889296
2	0x3ecdfcc2	0.402319
3	0xbea25954	-0.31708777
4	0xbde0ca34	-0.10976067
5	0xbe0e0714	-0.13869888
6	0x3e1d9b6c	0.1539132
7	0x3e6d0cf0	0.23149467
8	0xbe0fa8f0	-0.14029288
9	0x3ec6b71a	0.3881157
10	0x3dc60080	0.09668064
11	0xbeba23a3	-0.36355314
12	0x3eb636c4	0.35588658
13	0x3d8a01c0	0.06738615
14	0xbeb7f56d	-0.35929433
15	0xbe52df22	-0.20592931
16	0xbd7f9048	-0.062393457
17	0xbd91cc3c	-0.07119033
18	0xbe949fb6	-0.290281
19	0x3dc85e80	0.097836494
20	0x3d7eb750	0.06218654
21	0xbea2e391	-0.31814244
22	0xbeb29b9d	-0.3488435
23	0xbecc8897	-0.3994796
24	0xbe9765a7	-0.29569742
25	0x3dc0be20	0.094112635
26	0x3eb0414e	0.34424824
27	0xbdef3dd0	-0.11681712
28	0xbe9df067	-0.30847475
29	0x3e7d97ac	0.2476489
30	0xbeabee18	-0.3358009
31	0xbe361ba9	-0.17783989
32	0xbd604088	-0.05474904
33	0xbdb81ad0	-0.08989489
34	0xbd0f6fc8	-0.035018712
35	0x3eccb74c	0.39983594
36	0xbbd1fe80	-0.0064085126
37	0x3dcb9260	0.09940028
38	0xbe0d675a	-0.13808957
39	0xbe03641a	-0.12831154
40	0xbd2b0160	-0.04174936
41	0xbe290fe5	-0.1650997
42	0x3ed0bfe6	0.40771407
43	0x3e272104	0.16321188
44	0xbe81a37c	-0.2532004
45	0x3c17b1c0	0.0092586875
46	0xbeb11613	-0.34587154
47	0xbe72bb32	-0.23704222
48	0x3e86e730	0.26348257
49	0xbdd2fbd8	-0.10301942
50	0xbec96713	-0.39336452
51	0xbe833c26	-0.25631827
52	0xbd46d838	-0.048546046
53	0xbe95e1e6	-0.2927391
54	0x3ea01176	0.31263322
55	0x3e8f12a2	0.27943903
56	0x3e01acbc	0.12663549
57	0x3ebf7306	0.37392443
58	0x3c7cbe00	0.015426159
59	0x3d3a8cf0	0.045544565
60	0xbe457be3	-0.1928554
61	0x3e85f4ee	0.2616343
62	0x3e6b95f0	0.23006415
63	0xbda6dec0	-0.08147955
64	0xbe7cf9e5	-0.24704702
65	0x3cc3afc0	0.023887515
66	0x3ecd9d9e	0.40159315
67	0xbe29215c	-0.16516632
68	0x3e2405b4	0.160178
69	0x3eaa9d44	0.3332311
70	0xbea39cbc	-0.31955516
71	0xbd26c5b0	-0.040715873
72	0xbe09226e	-0.1339204
73	0xbdbc18bc	-0.09184405
74	0x3e1eb948	0.15500367
75	0x3e7604b4	0.24025232
76	0xbdcaabf4	-0.09896079
77	0x3e407bec	0.18797272
78	0xbe48bd88	-0.1960355
79	0xbe8a44d0	-0.27005625
80	0xbec0b21e	-0.37635893
81	0x3c23fea0	0.010009438
82	0x3e3e2078	0.18567073
83	0xbebdd151	-0.37073758
84	0x3c4310c0	0.011905849
85	0x3d718430	0.058963954
86	0x3ebe263e	0.3713855
87	0x3e5ebe18	0.21752203
88	0xbec278ce	-0.37982792
89	0xbec0289f	-0.3753099
90	0x3ea33578	0.3187673
91	0x3e3eedb0	0.18645358
92	0xbec79a91	-0.38985112
93	0x3de94198	0.11389464
94	0xbea2901b	-0.3175057
95	0x3e80ae0a	0.2513278
96	0x3e5b85a8	0.21437705
97	0x3e65edfc	0.22454065
98	0xbe37a026	-0.17932186
99	0xbe8a65d6	-0.2703082
100	0x3e6638cc	0.22482604
101	0xbba5b980	-0.0050575137
102	0xbe9221ec	-0.28541505
103	0x3e672bec	0.22575349
104	0xbe8327e2	-0.25616366
105	0x3be57580	0.0070025325
106	0x3e38e324	0.18055397
107	0x3e5e321c	0.21698803
108	0xbe2553a7	-0.16145192
109	0x3e7ef6d4	0.24898845
110	0x3e80dc4e	0.2516808
111	0xbd963f8c	-0.07336339
112	0xbe2b5e46	-0.16735181
113	0xbec8d6ce	-0.39226383
114	0x3e992aee	0.29915565
115	0xbeccfd1c	-0.40036857
116	0x3d162738	0.036658496
117	0xbe7a2c4c	-0.2443096
118	0x3e755774	0.23959142
119	0xbe9a2527	-0.3010647
120	0xbe1e319e	-0.15448615
121	0xbd28caf0	-0.04120916
122	0x3e4d117c	0.20026201
123	0x3e9970a4	0.2996875
124	0xbe491469	-0.19636692
125	0x3e5583c0	0.2085104
126	0x3d8c7558	0.06858319
127	0x3ea435f8	0.32072425
128	0x3ebfd474	0.37466776
129	0xbea44d79	-0.32090357
130	0x3d2aab70	0.0416674
131	0x3ec6b036	0.38806313
132	0x3e9a7344	0.30166066
133	0xbde2e228	-0.11078292
134	0x3e497830	0.19674754
135	0xbe51c0e0	-0.20483732
136	0x3ecbbd0a	0.39792663
137	0xbd218a78	-0.039438695
138	0xbe3e3089	-0.18573202
139	0x3d90bd88	0.070674
140	0x3e9932e6	0.29921645
141	0xbe0ce82c	-0.13760442
142	0xbe20f3da	-0.15718022
143	0x3d9b9300	0.075963974
144	0xbe7debdf	-0.24797009
145	0xbeb447cc	-0.35211027
146	0xbe1ab660	-0.15108633
147	0xbec02088	-0.3752482
148	0x3dc5ed30	0.096643806
149	0xbe47a63a	-0.19497004
150	0x3d2ad018	0.04170236
151	0x3e82a5f8	0.2551725
152	0xbec64cf8	-0.38730597
153	0x3e8c032a	0.27346164
154	0xbe9a854f	-0.3017983
155	0xbd98760c	-0.07444391
156	0xbe3346eb	-0.17507522
157	0x3e0a3ccc	0.13499755
158	0xbe3b73ee	-0.18305942
159	0x3e6d978c	0.23202342
160	0x3d3a1ff0	0.045440614
161	0x3eae196c	0.3400377
162	0xbe7f846a	-0.24952856
163	0xbea2605f	-0.3171415
164	0x3df718f0	0.12065303
165	0xbd2d6fb8	-0.04234287
166	0xbeabe916	-0.33576268
167	0x3c019640	0.007909358
168	0xbe900f88	-0.2813685
169	0xbe0405fc	-0.12892908
170	0x3ea56aa6	0.3230793
171	0xbe95cca7	-0.292577
172	0x3df5f4c0	0.12009573
173	0x3e96ed9e	0.29478163
174	0xbeaceb67	-0.33773348
175	0x3eb15308	0.3463366
176	0x3ed0adcc	0.40757596
177	0x3cab5910	0.020916492
178	0x3d3a6140	0.0455029
179	0xbdd6af84	-0.10482696
180	0xbdb49524	-0.08817509
181	0xbec1989b	-0.3781174
182	0x3ebe9df4	0.37229884
183	0xbcd28a40	-0.025700688
184	0xbe5d41fa	-0.216072
185	0xbd9f29a0	-0.07771611
186	0xbced90a0	-0.028999627
187	0xbe5bf929	-0.21481766
188	0xbddf7070	-0.109101176
189	0x3d0dcfb0	0.034621894
190	0xbdbaeab4	-0.09126797
191	0xbe1f448c	-0.15553492
192	0x3ea86a76	0.32893723
193	0x3e0fe790	0.14053178
194	0x3e9ef770	0.31048155
195	0xbe844c14	-0.25839293
196	0xbe8e131c	-0.27748954
197	0xbea2434c	-0.31691968
198	0x3ecfc858	0.40582538
199	0x3daa86e8	0.083265126
200	0xbe7a89bc	-0.24466604
201	0x3e95ecf6	0.2928235
202	0x3e647bcc	0.2231285
203	0x3d8e6914	0.06953636
204	0xbe175fac	-0.1478259
205	0xbe38a7f4	-0.18032819
206	0x3ea70942	0.3262425
207	0xbabcde00	-0.0014409423
208	0xbdbb35c8	-0.09141117
209	0x3e23256c	0.15932244
210	0xbd24c070	-0.040222585
211	0x3d7a7f20	0.061156392
212	0xbe11d42a	-0.1424109
213	0xbccc0490	-0.02490452
214	0x3e329390	0.17439103
215	0x3ebcc85a	0.36871606
216	0x3ec28240	0.37989998
217	0x3e188084	0.14892775
218	0x3eacaaa2	0.33723933
219	0x3e758794	0.239775
220	0xbe80a96c	-0.2512926
221	0xbd8fb1ec	-0.07016358
222	0xbea743af	-0.32668826
223	0xbeb97f66	-0.3623001
224	0x3e31a880	0.17349434
225	0x3d0ea3e0	0.034824252
226	0xbec51613	-0.38493404
227	0xbe13ef56	-0.14446768
228	0x3e95f8ba	0.29291326
229	0x3e920b24	0.28524125
230	0x3e155858	0.14584482
231	0xbea9702e	-0.330934
232	0xbdf9cca8	-0.12197238
233	0x3e3e7d7c	0.18602556
234	0xbe3ea742	-0.18618491
235	0xbea302f2	-0.31838185
236	0x3e59b100	0.21258926
237	0xbec1719b	-0.37781987
238	0x3e9585ce	0.29203647
239	0x3d5ce358	0.05392775
240	0x3eb571c8	0.3543837
241	0x3e5487b4	0.20754892
242	0xbe6f9ffd	-0.23400874
243	0x3d840b70	0.06447494
244	0x3e069efc	0.13146585
245	0xbe771f44	-0.2413302
246	0x3e773398	0.24140775
247	0xbde13a08	-0.10997397
248	0x3e5e4a60	0.2170806
249	0x3df4fd40	0.11962366
250	0x3c2745a0	0.010209471
251	0x3de2c0a0	0.110718966
252	0xbeb68557	-0.35648605
253	0xbec51919	-0.3849571
254	0x3e101b88	0.14073002
255	0x3e06ece8	0.1317631

fc1.bias f4 [128]
0	0xbd9d5e00	-0.07683945
1	0x3e841020	0.25793552
2	0x3e9269be	0.285963
3	0xbea76a66	-0.32698363
4	0xbe7fea35	-0.24991687
5	0x3d76b100	0.060227394
6	0xbe3d53c3	-0.18488984
7	0xbe92fed6	-0.2871005
8	0xbbef0f40	-0.007295519
9	0xbec114a3	-0.37711057
10	0x3d107da8	0.035276085
11	0xbea54330	-0.32277822
12	0xbd23c9d0	-0.039987385
13	0x3d064220	0.032777905
14	0xbeaec9ac	-0.34138238
15	0x3d61c138	0.05511591
16	0x3d01a138	0.03164789
17	0x3dd7f7a8	0.105452836
18	0x3ec9d550	0.39420557
19	0x3d835bac	0.064139694
20	0xbeba92b3	-0.36440048
21	0xbc270a20	-0.010195285
22	0x3ecde2c4	0.4021207
23	0x3e8c3d62	0.2739058
24	0x3ddda860	0.108231306
25	0xbe0b6b42	-0.13615134
26	0x3e8bd9c2	0.27314574
27	0xbe6fcda3	-0.23418288
28	0x3e4ced24	0.20012337
29	0x3e603654	0.21895725
30	0xbe039cf6	-0.12852845
31	0xbe38d29d	-0.18049093
32	0xbdc88d68	-0.09792596
33	0xbda4ffe4	-0.0805662
34	0x3e3b6c18	0.18302953
35	0x3e8f9d4c	0.28049695
36	0x3eb8cb1c	0.3609246
37	0xbeb4d4cb	-0.35318598
38	0xbe0478e2	-0.12936738
39	0x3e62bd4c	0.22142524
40	0xbc6e8f80	-0.01456058
41	0x3eb1c614	0.34721434
42	0x3e43dbb8	0.19126785
43	0x3e42a8d0	0.1900971
44	0x3e429724	0.19002968
45	0xbe8bc648	-0.27299714
46	0x3eaf4c1e	0.3423776
47	0x3dae1d84	0.085017234
48	0x3e7128a4	0.2355066
49	0xbe258eab	-0.16167705
50	0x3ec0ee64	0.37681878
51	0x3bd87dc0	0.0066067874
52	0xbe1afea6	-0.15136203
53	0xbea4d60b	-0.32194552
54	0x3e4413d8	0.19148195
55	0xbecc35ca	-0.39884788
56	0x3e8521a0	0.26002216
57	0xbe8a5de5	-0.2702476
58	0xbe9e43c9	-0.3091109
59	0x3df31c30	0.11870611
60	0xbeca41a4	-0.39503205
61	0x3e6d17c4	0.23153597
62	0x3d3da638	0.046301097
63	0x3deefb38	0.1166901
64	0x3df6f650	0.12058699
65	0x3ea06648	0.31328034
66	0xbd8a1fec	-0.0674437
67	0xbe0e5e20	-0.13903093
68	0xbe9e9ed5	-0.30980554
69	0xbe7e3797	-0.24825893
70	0x3eb536c8	0.35393357
71	0xbe7790bc	-0.24176306
72	0x3e660748	0.22463715
73	0xbecab83b	-0.39593682
74	0x3ec410f2	0.38294178
75	0x3d91c354	0.07117334
76	0x3eab1c48	0.33420014
77	0xbda6e990	-0.08150017
78	0xbcb39060	-0.02191943
79	0xbe1ce5aa	-0.15321985
80	0xbe33eea1	-0.17571498
81	0xbe5bf9fd	-0.21482082
82	0x3ecdfa04	0.4022981
83	0xbe1d4082	-0.15356639
84	0xbe5c2342	-0.21497825
85	0xbdf69980	-0.120409966
86	0x3d85f2d8	0.065404594
87	0x3e8c7b56	0.27437848
88	0x3d40dfe8	0.047088534
89	0xbe41dc18	-0.18931615
90	0xbeac2993	-0.3362547
91	0xbec57187	-0.38563177
92	0xbe2a6146	-0.1663867
93	0xbe2309fe	-0.1592178
94	0xbdc73dcc	-0.09728584
95	0x3d20daa0	0.039270997
96	0x3ec5f778	0.38665366
97	0xbeb29769	-0.34881142
98	0xbeb97015	-0.36218324
99	0x3e2246d0	0.15847325
100	0x3e26ad20	0.1627698
101	0xbc3cfc40	-0.01153475
102	0x3e0a885c	0.1352858
103	0x3d9f25b4	0.07770863
104	0xbc8eabd0	-0.017415911
105	0x3e722a64	0.23648983
106	0xbe28d869	-0.16488804
107	0xbd407878	-0.046989888
108	0xbe80e9fc	-0.25178516
109	0x3e9f2a38	0.31086898
110	0xbe8b9a5a	-0.27266198
111	0x3e836bd6	0.2566821
112	0xbd205e50	-0.039152443
113	0x3e804c66	0.25058287
114	0x3ea7fda2	0.32810694
115	0x3e161a0c	0.14658374
116	0xbd92267c	-0.071362466
117	0xbde517f4	-0.11186209
118	0x3d657028	0.056015164
119	0x3e51c1ec	0.20484132
120	0x3ebdba0c	0.37056005
121	0xbc5047e0	-0.012712449
122	0x3d813ca0	0.063103914
123	0xbda02b30	-0.07820737
124	0xbeb2bc1d	-0.34909144
125	0xbe504b88	-0.20341313
126	0xbe9da8d3	-0.30792865
127	0x3df792d8	0.12088555

fc2.weight f4 [128, 128]
0	0xbd937dd4	-0.07201734
1	0xbd839f79	-0.06426901
2	0x3cf5ed44	0.030020364
3	0x3d0e0446	0.034672044
4	0xbcc7f42c	-0.024408422
5	0x3dab8365	0.08374671
6	0xbdab0c52	-0.08351959
7	0x3cea7848	0.028621808
8	0xbd7641a1	-0.060121182
9	0x3c379e80	0.011207223
10	0xbc91e8d4	-0.017811216
11	0x3bbad690	0.0057018474
12	0x3d65223a	0.055940844
13	0x3d9f1a83	0.077687286
14	0x3d41f8a2	0.047356255
15	0xbdb37b57	-0.087637596
16	0xbcccd2d0	-0.025002867
17	0x3dae7efb	0.08520313
18	0x3d0a0866	0.033699416
19	0xbb6a5c60	-0.0035760626
20	0xbd45a09b	-0.04824887
21	0x3c817240	0.015801549
22	0x3d0bc94a	0.03412751
23	0x3c2eff78	0.010681026
24	0x3d97c631	0.07410849
25	0x3cfe54e4	0.031046338
26	0xbc04cba0	-0.008105189
27	0x3d3dae86	0.046309017
28	0x3d750dde	0.059827678
29	0xbba3bb10	-0.004996665
30	0x3c82fa5c	0.015988521
31	0x3c8e66f0	0.017383069
32	0xbda0d8c6	-0.07853846
33	0xbd6cba99	-0.05779514
34	0xbd95fd79	-0.07323737
35	0xbd423d43	-0.047421705
36	0xbd9e894e	-0.077410325
37	0x3daac667	0.083386235
38	0x3cb3f088	0.02196528
39	0x3d837fcf	0.06420862
40	0x3ca8560c	0.020548843
41	0xbda3e7ac	-0.08003172
42	0xbd4ca3d4	-0.049960926
43	0x3d7a0d5a	0.06104789
44	0xbd85e23d	-0.06537292
45	0x3db38e67	0.087673955
46	0xbd9e9f98	-0.07745284
47	0x3cf6bbb0	0.030118793
48	0x3d36d14e	0.044633202
49	0x3d028524	0.031865254
50	0x3d82d4b9	0.0638823
51	0x3d171d6e	0.0368933
52	0x3d966c09	0.07344825
53	0x3d8e00dd	0.069337584
54	0x3d270416	0.04077538
55	0xbdb38fa8	-0.08767635
56	0x3db05ff3	0.08612051
57	0x3d5f88fe	0.054574005
58	0xbd08b97a	-0.03338001
59	0xbcf6faa4	-0.030148812
60	0xbd92a4d6	-0.07160346
61	0xbd812fda	-0.06307955
62	0xbcb092d0	-0.02155438
63	0x3c6762b8	0.0141226575
64	0xbd9c3d0f	-0.076288335
65	0xbd7b95dc	-0.061422214
66	0x3d4b6512	0.049656935
67	0xbdad6a08	-0.084674895
68	0xbd9d20bc	-0.07672259
69	0x3c5beb80	0.013422847
70	0xbd92c14e	-0.07165776
71	0xbd1612cd	-0.036639024
72	0x3d300b0e	0.042979293
73	0xbd8464a2	-0.06464507
74	0xbd40839b	-0.04700051
75	0xbd1347d4	-0.035957173
76	0xbd357f50	-0.044310868
77	0x3dab2485	0.08356575
78	0xbd1d5dd7	-0.03841957
79	0xbcc3e2a4	-0.023911782
80	0x3d1f340e	0.038868003
81	0x3d6f94f2	0.058491655
82	0x3d079ada	0.033106662
83	0x3da9b9b9	0.08287377
84	0xbc6c52d0	-0.014424041
85	0xbd913c3b	-0.07091566
86	0xbd1b5790	-0.037925303
87	0xbc335830	-0.0109463185
88	0x3d444fd6	0.0479277
89	0xbd28c842	-0.041206606
90	0x3c90715c	0.017632179
91	0xbd1d2417	-0.038364496
92	0xbd1193f1	-0.03554148
93	0x3cc97168	0.02459021
94	0xbd831725	-0.06400899
95	0x3d29659e	0.041356675
96	0xbc0ecf18	-0.008716367
97	0xbd76ea35	-0.06028195
98	0xbce93418	-0.028467223
99	0xbd3344aa	-0.043766655
100	0xbd5cf0dd	-0.053940643
101	0x3d99fb17	0.07518595
102	0x3c5151b0	0.0127758235
103	0xbd9ed598	-0.077555835
104	0x3dae1c01	0.08501435
105	0xbc880278	-0.01660274
106	0xbb80fe70	-0.0039365813
107	0xbd165329	-0.0367004
108	0xbc5b4b10	-0.0133845955
109	0xbc65ba70	-0.014021501
110	0xbd6c7faa	-0.057738937
111	0xbda4e645	-0.08051733
112	0x3d7539be	0.05986952
113	0x3d55f4fe	0.052235596
114	0xbd378849	-0.044807706
115	0x3bbb2a40	0.0057118237
116	0xbd2cd652	-0.04219658
117	0x3c9c3250	0.01906696
118	0xbcd9dcb2	-0.026594494
119	0x3c2f98a0	0.010717541
120	0x3d8fef85	0.070281066
121	0x3d8100ef	0.06299006
122	0x3d8c6327	0.06854849
123	0xbcc68f50	-0.024238259
124	0x3d459da2	0.048246033
125	0xbda07a69	-0.07835848
126	0xbd4eea5d	-0.050516475
127	0x3d183bf6	0.03716656
128	0x3d2411e2	0.040056117
129	0x3d74e392	0.05978734
130	0xbc6622e8	-0.014046408
131	0xbd32af5b	-0.043624263
132	0x3bd7fef0	0.00659167
133	0xbd55cbc4	-0.05219628
134	0xbc87fadc	-0.016599111
135	0xbdb47947	-0.08812194
136	0xbd089367	-0.0333437
137	0xbd2829b0	-0.04105538
138	0x3d6efb62	0.058345206
139	0xbd95e444	-0.07318929
140	0x3b56f200	0.0032798052
141	0xbdb4ea03	-0.08833697
142	0x3d5a8f1e	0.053359143
143	0x3d7ab676	0.061209165
144	0x3c775bb8	0.015097551
145	0xbd87b480	-0.066262245
146	0x3d355ca6	0.04427781
147	0x3beecc60	0.007287547
148	0x3d503dc6	0.05084016
149	0xbc9ef8a0	-0.019405663
150	0xbda20c44	-0.07912496
151	0x3d97e2e3	0.07416322
152	0x3db37e53	0.08764329
153	0xbb9f79b0	-0.004866801
154	0xbd03ba2a	-0.03215996
155	0x3d3b5f7e	0.045745365
156	0xbcab6cc0	-0.02092588
157	0xbd1d63e5	-0.038425345
158	0x3d08c952	0.03339512
159	0x3d8cd807	0.068771414
160	0xbdb317be	-0.08744763
161	0xbda79f4f	-0.081846826
162	0xbc957690	-0.018245012
163	0xbd383143	-0.044968855
164	0x3acadd00	0.001547724
165	0xbc886ec4	-0.01665438
166	0xbd0f9ec7	-0.03506353
167	0xbd00007a	-0.031250454
168	0xbc84c504	-0.016207226
169	0x3d4f200e	0.05056768
170	0x3d6cdc0e	0.057827048
171	0x3d520b36	0.051280223
172	0x3db27029	0.08712799
173	0xbbbe1ae0	-0.0058015436
174	0x3c891edc	0.016738348
175	0xbdb073ad	-0.086158134
176	0x3d9a5827	0.07536345
177	0xbcf04cf6	-0.029333573
178	0xbcc08fcc	-0.023506068
179	0xbd3dcae0	-0.046336055
180	0xbd781222	-0.060564168
181	0x3ccc20e4	0.024918027
182	0x3d9550ed	0.07290826
183	0xbc8805a8	-0.01660426
184	0x3a6ce580	0.0009036884
185	0x3d03ffb4	0.03222628
186	0xbda0f2eb	-0.07858833
187	0xbcfeff58	-0.031127617
188	0x3d550d4e	0.05201464
189	0xbd84f320	-0.06491685
190	0x3d9c28ab	0.07624944
191	0x3db41ab1	0.087941535
192	0xbd90878a	-0.07057102
193	0x3d8cb40b	0.06870278
194	0xbd30d464	-0.0431713
195	0x3d96dd13	0.07366385
196	0xbd51a02e	-0.05117815
197	0xbda713f2	-0.08158101
198	0x3c092130	0.008369729
199	0xbd811d6e	-0.063044414
200	0xbca0dc80	-0.019636393
201	0x3d4adbe2	0.049526103
202	0xbd015f53	-0.03158505
203	0x3d41153a	0.047139384
204	0xbda681a6	-0.08130197
205	0x3d9e2acf	0.07723009
206	0x3da9e1bb	0.08295008
207	0x3c8ccea0	0.01718837
208	0x3d88fc45	0.066887416
209	0x3bb0aaa0	0.005391434
210	0x3dabd3a1	0.083899744
211	0x3bd97e20	0.0066373497
212	0x3c2861d8	0.010277234
213	0x3d8d8a55	0.0691115
214	0x3d70010e	0.058594756
215	0x3dabf8cd	0.08397064
216	0x3c7d7ac0	0.01547116
217	0x3d8868a3	0.06660583
218	0x3d824bef	0.063621394
219	0x3d9bf6cf	0.076154344
220	0xbc8af1b4	-0.016960956
221	0x3d1c74be	0.03819727
222	0xbc91ef10	-0.01781419
223	0x3d32e8ae	0.043678932
224	0xbd2d5e19	-0.042326067
225	0xbd4dcd7f	-0.050244804
226	0x3d99195b	0.07475539
227	0xbdb1aef7	-0.0867595
228	0xbc69d190	-0.014271155
229	0x3cd11548	0.025522843
230	0xbcfe4c56	-0.03104226
231	0x3d82d9cb	0.06389197
232	0xbc953528	-0.018213823
233	0xbcc0b68c	-0.023524545
234	0x3c18baf0	0.009321913
235	0xbda1a3df	-0.07892584
236	0x3c3265a0	0.010888487
237	0xbc1f2690	-0.009713784
238	0xbcbb5040	-0.022865415
239	0x3d81fe7f	0.063473694
240	0x3c5de3f8	0.0135431215
241	0xbd09fb85	-0.033687133
242	0x3afc1f00	0.0019235313
243	0x3ce6dc40	0.028181195
244	0xbcb17f78	-0.021667227
245	0xbc8d1afc	-0.017224781
246	0x3d3f0da6	0.046643876
247	0x3c022078	0.0079423115
248	0x3d8b54fb	0.06803318
249	0x3da71b43	0.08159497
250	0xbd85f84c	-0.065414995
251	0x3d1491c0	0.03627181
252	0x3d1d2aa2	0.038370736
253	0xbca1ef8c	-0.019767545
254	0x3d5b9892	0.0536123
255	0xbb89f210	-0.0042097643

fc2.bias f4 [128]
0	0x3daafe21	0.083492525
1	0xbd586283	-0.052828323
2	0x3c3e6e98	0.011623047
3	0xbd1d4ccd	-0.03840332
4	0x3c20d5b8	0.0098165795
5	0x3cb727b8	0.022357807
6	0xbd0e375f	-0.034720775
7	0xbd8c1a28	-0.068409264
8	0xbd3baa04	-0.045816436
9	0x3d62826e	0.05530017
10	0xbda7382b	-0.0816501
11	0xbce52934	-0.027973749
12	0x3c9a2554	0.018816628
13	0xbd0d0ddb	-0.03443704
14	0xbc33d530	-0.010976121
15	0xbd17813d	-0.036988486
16	0xbd23c506	-0.039982818
17	0xbc36a3d8	-0.011147462
18	0xbd953bd0	-0.07286799
19	0x3d83db9b	0.06438371
20	0x3d7b40fa	0.061341263
21	0xbd6b84e0	-0.057499766
22	0x3cf311b4	0.029671527
23	0x3b4324e0	0.0029776618
24	0xbd56acae	-0.052410774
25	0xbc82677c	-0.015918486
26	0xbce5592c	-0.027996622
27	0x3cca7304	0.024713047
28	0xbd8c0c48	-0.0683828
29	0xbca0e540	-0.019640565
30	0x3d89b689	0.06724269
31	0x3da3e06d	0.0800179
32	0x3d87c1b5	0.066287436
33	0x3d77f6a2	0.06053794
34	0xbc9239cc	-0.017849825
35	0xbd3c8d3b	-0.046033125
36	0xbdab4dca	-0.083644465
37	0x3cf38d44	0.029730447
38	0xbd6a90a5	-0.05726685
39	0x3d684b26	0.056712292
40	0x3b6bc2a0	0.003597416
41	0xbd30f4dd	-0.04320227
42	0xbd1a962b	-0.037740868
43	0xbbbc8210	-0.0057528093
44	0x3d0b5b18	0.03402242
45	0x3d401a42	0.04690004
46	0x3cc74818	0.02432637
47	0x3d1d7e0e	0.038450293
48	0x3c46f000	0.012142181
49	0x3d9e9bdb	0.07744571
50	0xbda7251c	-0.08161375
51	0x3cfae3ec	0.03062626
52	0x3d8115b1	0.063029654
53	0xbc64e458	-0.013970457
54	0xbcda0e6a	-0.026618201
55	0xbb993a10	-0.004676111
56	0x3c95cf38	0.018287286
57	0xbc0e7c40	-0.008696616
58	0x3d442e96	0.04789599
59	0x3c1bbfa0	0.009506136
60	0xbceaf604	-0.028681763
61	0xbd614aa5	-0.055002827
62	0x3d95aeef	0.073087566
63	0x3d83c66d	0.06434331
64	0xbdad383f	-0.08457994
65	0xbd153481	-0.036427025
66	0xbcff88ec	-0.03119322
67	0x3c808478	0.015688166
68	0x3d3b298a	0.04569391
69	0xbd935b9b	-0.07195207
70	0xbcc584fc	-0.024111263
71	0xbc86cea4	-0.016455956
72	0x3d7d34da	0.06181798
73	0x3ca1fd4c	0.019774102
74	0xbc1ef488	-0.0097018555
75	0xbd1f2304	-0.038851753
76	0x3daff6f1	0.08592022
77	0x3dab2e1f	0.08358406
78	0x3c1e29d0	0.009653524
79	0xbdad9d47	-0.08477264
80	0xbd63efb3	-0.055648517
81	0x3d4b1a2a	0.0495855
82	0x3d6d4a3e	0.05793213
83	0x3cef5d18	0.029219195
84	0x3d2f02b2	0.04272718
85	0xbd95f53b	-0.073221646
86	0x3d83b509	0.06431014
87	0xbd9a69ad	-0.07539687
88	0x3c2030d8	0.00977727
89	0xbd24fcfd	-0.04028033
90	0x3d93e443	0.07221272
91	0xbd4b95a0	-0.04970324
92	0xbc8406bc	-0.016116492
93	0x3da4e7fd	0.08052061
94	0xbd9e4a9b	-0.077290736
95	0x3ca62a38	0.020283803
96	0xbd0f473b	-0.03498004
97	0x3a754900	0.0009356886
98	0x3d648b8e	0.055797152
99	0xbc336940	-0.0109503865
100	0xbdab7647	-0.08372169
101	0x3cbbb88c	0.022915147
102	0x3d25be9e	0.04046499
103	0x3d02c492	0.031925745
104	0x3c0d2870	0.008615598
105	0xbda970b2	-0.08273448
106	0x3d2a46c2	0.041571386
107	0xbd510470	-0.051029623
108	0xbd6ffb3c	-0.058589205
109	0xbd9e0a27	-0.0771678
110	0x3d8f42db	0.069951735
111	0xbcb1855c	-0.021670036
112	0x3d72f5ee	0.059316568
113	0xbceafa10	-0.028683692
114	0xbdaa770e	-0.08323489
115	0x3d35f2aa	0.044420876
116	0x3d534486	0.05157902
117	0x3d8f0615	0.06983582
118	0x3c871890	0.016491205
119	0xbd7e1a66	-0.062036894
120	0xbd5cdc78	-0.053921193
121	0xbd4ffe82	-0.050779827
122	0x3c913bd0	0.017728716
123	0xbd3678b0	-0.04454869
124	0x3cfa9864	0.030590244
125	0xbd3ea20c	-0.04654126
126	0xbd04e145	-0.032441396
127	0x3d02d91c	0.031945333

fc3.weight f4 [2, 128]
0	0x3cb977ac	0.022640072
1	0x3d92b077	0.07162564
2	0xbccca820	-0.024982512
3	0x3c84ef60	0.016227424
4	0xbda7f6eb	-0.08201393
5	0x3d17d30e	0.03706651
6	0xbd04356f	-0.03227752
7	0x3d5cca06	0.053903602
8	0x3c0e8ce8	0.008700587
9	0x3dabd281	0.0838976
10	0xbd6c995a	-0.057763435
11	0xbce0caf0	-0.027440518
12	0x3cca5224	0.02469737
13	0xbd0ac35b	-0.03387771
14	0xbd309430	-0.043110073
15	0x3cb1b96c	0.021694861
16	0x3d578212	0.05261428
17	0xbd3fe1b1	-0.046846095
18	0xbb574ce0	-0.0032852218
19	0xbd88b369	-0.06674845
20	0xbc826780	-0.015918493
21	0x3d678916	0.05652722
22	0x3cf54e14	0.029944457
23	0x3d715786	0.05892136
24	0xbbb48130	-0.0055085644
25	0x3d7b7bea	0.06139747
26	0x3da038eb	0.07823356
27	0xbd808e39	-0.06277127
28	0x3cf5abd4	0.02998916
29	0x3c9921a4	0.018692799
30	0xbd8b2e2c	-0.06795916
31	0x3da13b13	0.07872596
32	0x3d19114a	0.037370004
33	0x3bc86af0	0.0061162636
34	0xbca58e3c	-0.020209424
35	0x3d705b1a	0.05868063
36	0x3d65954e	0.05605059
37	0x3b1fec20	0.0024402216
38	0x3dabc6e3	0.08387544
39	0x3da98a91	0.082783826
40	0x3d1387a4	0.03601803
41	0x3dae85cf	0.08521616
42	0x3d7efe72	0.062254377
43	0x3d82433f	0.063604824
44	0x3d5f0802	0.054450996
45	0x3d543256	0.051805817
46	0x3c58b2b0	0.013226196
47	0xbd9f7e94	-0.07787815
48	0x3c4c30f8	0.012462847
49	0x3d03d7b0	0.032188118
50	0x3cd32d6c	0.025778495
51	0x3cdc8258	0.026917621
52	0xbd3f3d0c	-0.04668908
53	0x3d9fccd5	0.078027405
54	0x3d8e6f4b	0.06954821
55	0xbc8cd52c	-0.017191492
56	0xbcdeb2c6	-0.027184855
57	0xbdb3e2fb	-0.087835275
58	0x3d77053a	0.06030772
59	0xbd8731a1	-0.06601263
60	0xbd7ac4e8	-0.06122294
61	0x3c112db8	0.008860998
62	0x3c542058	0.0129471645
63	0x3d7403f2	0.059574075
64	0xbd34c185	-0.044129867
65	0x3cbeab1c	0.02327495
66	0x3d10b57a	0.03532932
67	0xbcd93062	-0.026512329
68	0xbdb24ac9	-0.087056704
69	0x3d98bb95	0.074576534
70	0x3b2ba560	0.00261911
71	0x3d0df5c0	0.034658194
72	0x3db1ee23	0.08687999
73	0x3da577af	0.080794685
74	0xbb4f6da0	-0.0031651035
75	0x3cc9d358	0.02463691
76	0xbd906cbf	-0.07051992
77	0x3d762ce6	0.060101412
78	0x3ad70680	0.0016405135
79	0xbcddf4d2	-0.027094278
80	0xbd8c493e	-0.06849907
81	0xbcf22b42	-0.029561643
82	0xbc210b98	-0.009829424
83	0x3d83854f	0.06421911
84	0x3d819615	0.06327454
85	0xbcffd00e	-0.031227138
86	0xbd679cea	-0.05654613
87	0xbc4daec0	-0.012553871
88	0xbd30659b	-0.04306565
89	0x3cba4314	0.022737063
90	0x3cc338f0	0.02383086
91	0x3d55192e	0.052025966
92	0xbd78dfd8	-0.06076035
93	0x3d8fd677	0.07023328
94	0xbd42cfca	-0.047561444
95	0x3d8de3e1	0.0692823
96	0x3bf6c730	0.007531069
97	0x3cd5a0d0	0.026077658
98	0xbda4623d	-0.0802655
99	0xbd76a2ea	-0.06021396
100	0x3d8ea565	0.0696514
101	0x3c407f68	0.011749126
102	0x3d1a37fa	0.03765104
103	0xbc81c168	-0.015839294
104	0x3d4d3bb6	0.050105773
105	0x3d74384a	0.059623994
106	0xbd1de99d	-0.03855287
107	0xbd51acaf	-0.051190075
108	0xbbf537e0	-0.0074834675
109	0xbd02a4bc	-0.031895384
110	0xbd0fac8e	-0.03507667
111	0x3c02a3d8	0.007973634
112	0xbd0f2e18	-0.034956068
113	0x3d56d25a	0.0524467
114	0xbb05b1c0	-0.0020400137
115	0xbd692545	-0.05692031
116	0x3c91f5dc	0.01781743
117	0x3d0578a8	0.03258577
118	0x3d974131	0.07385481
119	0xbd0c350a	-0.03423027
120	0xbd52b3aa	-0.051440872
121	0xbd813ba8	-0.06310207
122	0x3c3e9058	0.011631094
123	0xbc2e8e70	-0.010654077
124	0x3da12851	0.07869018
125	0xbd3a619c	-0.045503244
126	0xbd4a6649	-0.049413953
127	0xbd86a4b8	-0.06574386
128	0x3d8a7363	0.067602895
129	0x3ba311d0	0.0049764886
130	0x3d21c036	0.039489947
131	0x3cb39aac	0.02192434
132	0x3cfb25d0	0.030657679
133	0xbb505e00	-0.003179431
134	0x3cebc0c0	0.028778434
135	0xbb1ea840	-0.0024209172
136	0x3c479028	0.012180366
137	0xba8cb900	-0.0010736287
138	0xbcbbf5e4	-0.022944398
139	0x3d954f49	0.07290513
140	0xbcec0c5a	-0.028814483
141	0xbd818306	-0.06323819
142	0x3cb00b88	0.021489874
143	0xbd31f76b	-0.043448847
144	0x3d8edfe7	0.069763
145	0x3b989850	0.004656829
146	0x3cf3196c	0.029675208
147	0xbd6e8b36	-0.05823823
148	0xbd16e982	-0.036843784
149	0x3ca4ee68	0.020133212
150	0x3c80cbd8	0.0157222
151	0xbc0d9e40	-0.008643687
152	0xbd655615	-0.055990297
153	0x3cddf228	0.027093008
154	0xbd52863e	-0.051397555
155	0x3d9e95ab	0.07743391
156	0x3d62ae6a	0.055342115
157	0x3c621b60	0.013800472
158	0x3d865c13	0.065605305
159	0xbc9afe7c	-0.018920176
160	0xbbe43920	-0.0069648176
161	0xbbaa56d0	-0.005198337
162	0x3d3764be	0.04477381
163	0xbca1cff4	-0.01975248
164	0xbda2f4c4	-0.079568416
165	0xbd843321	-0.064550646
166	0x3d453206	0.04814341
167	0x3cfde7c0	0.030994296
168	0xbd8dda9a	-0.069264606
169	0xbcc19468	-0.023630336
170	0x3d385c9a	0.045010187
171	0xbbfd3290	-0.007726975
172	0xbd5eccf5	-0.05439468
173	0xbd1f8c99	-0.038952444
174	0xbd75871c	-0.059943303
175	0xbd42b458	-0.04753527
176	0x3cb51708	0.022105709
177	0x3d6e074a	0.05811242
178	0xbd13cc03	-0.036083233
179	0xbcbbebd4	-0.0229396
180	0xbcc7ac58	-0.024374172
181	0x3d92076b	0.07130321
182	0x3db4b053	0.08822694
183	0x3db2e921	0.08735872
184	0xbd4fc073	-0.050720643
185	0xbcbd0070	-0.023071498
186	0x3d9f171f	0.07768082
187	0x3d60de5a	0.05489955
188	0xbc958db8	-0.018256053
189	0xbd132564	-0.03592433
190	0x3d5364c6	0.051609777
191	0xbc343a98	-0.011000298
192	0x3a987300	0.0011630952
193	0xbd12871f	-0.035773393
194	0x3c0713c8	0.008244462
195	0x3cba9970	0.022778243
196	0xbc7582c0	-0.0149847865
197	0x3db23f73	0.08703508
198	0xbc108b48	-0.00882227
199	0xbd05976e	-0.032615118
200	0xbcd7646e	-0.026293006
201	0xbd30cd19	-0.043164346
202	0x3d6a757e	0.057240956
203	0xbb0d5980	-0.0021568239
204	0xbd398287	-0.045290496
205	0xbd822c08	-0.063560545
206	0xbd2e1907	-0.042504337
207	0xbd03f5d9	-0.03221688
208	0x3b45eb80	0.0030200183
209	0x3c6d7320	0.01449278
210	0x3d902a91	0.07039369
211	0x3cd484bc	0.025942199
212	0xbd50609c	-0.050873384
213	0x3a77b800	0.00094497204
214	0xbcae1348	-0.021249428
215	0x3d8c1e3b	0.068417035
216	0x3db3ed95	0.087855496
217	0x3d8f30a3	0.069916986
218	0xbcdb5634	-0.026774503
219	0x3d9f5f09	0.077817984
220	0xbd2273d8	-0.03966126
221	0xba996100	-0.0011701882
222	0x3d44ba4e	0.048029236
223	0xbd01189a	-0.031517603
224	0x3cc6e280	0.024277925
225	0x3d37396e	0.044732504
226	0xbdada82f	-0.08479344
227	0x3d9da0d5	0.07696692
228	0x3d86ac6d	0.06575856
229	0x3d3ac3ce	0.04559689
230	0xbd42454b	-0.047429364
231	0x3b0660e0	0.002050452
232	0xba76d680	-0.0009416118
233	0x3da61a55	0.08110491
234	0x3d26b60e	0.040700965
235	0xbd7f541a	-0.062336065
236	0x3cd18cfc	0.025579922
237	0x3cc46c7c	0.02397751
238	0x3aa23b80	0.0012377352
239	0xbd589cac	-0.05288379
240	0x3d920515	0.071298756
241	0x3d632272	0.05545277
242	0xbc2716c0	-0.010198295
243	0xbdaa1f22	-0.08306719
244	0x3cbdbc10	0.023160964
245	0x3d4ab20e	0.049486212
246	0x3d5ab58e	0.0533958
247	0x3d069a98	0.032862276
248	0x3d0f8210	0.035036147
249	0x3d617982	0.05504752
250	0x3d49f00e	0.0493012
251	0x3ccb250c	0.024797939
252	0xbd0b18a6	-0.033959053
253	0x3d1dacce	0.038494878
254	0x3d50403a	0.0508425
255	0x3d9d2479	0.07672972

fc3.bias f4 [2]
0	0x3d6a419e	0.057191484
1	0x3d596c8e	0.05308204
